best_model.pth (torch, 250466 bytes, 10 tensors)

feature_extractor.0.weight f4 [6, 3, 5, 5]
00000000: 3d5d 9b3c 55db 983d 6d67 90bd 2c69 43bd
00000010: 0011 2c3d 24dd 04be 6317 febd 2b1e 183d
00000020: b6d4 61bd 3932 fd3b 71f6 ab3d 1cf6 17bd
00000030: f36c 9bbd d4b7 5fbd 2d96 f3bd 8d78 5abd
00000040: 5626 473d eab2 3b3d a54a 05be b695 89bd
00000050: f4f2 8abc b235 bebc 5cff f7bd 6ac0 613d
00000060: 9063 0b3c 60fc 1abc d13b 173e d840 1c3e
00000070: 41d1 ce3d 212b 91bd f9b2 1c3e 7d4d 4b3d
00000080: 49a7 1a3c 01c0 943d 71be a63d e148 6bbd
00000090: 1d64 e63d 72db 493b 6c13 803d 2b36 653d
000000a0: 0aa7 973d 4c18 1d3e 18de f13d 65a3 0b3e
000000b0: b54a e43d 0d30 94bc 6842 733d 83e8 993d
000000c0: 917b 123d 8524 adbd 7ac0 9fbd 10a1 e9bd
000000d0: fa74 e4bd 43f5 c6bd a53a 0cbe 1019 1c3d
000000e0: d0e5 8a3c ed9d 803c 9dfa da3c 5fa7 08be
000000f0: db00 e9bd 3ce9 813d 77a6 d23c 5604 1ebc
00000100: 6b56 7ebd 08c2 a73d b3d8 f8bc cf04 b8bd
00000110: da73 8fbd 5182 81bd 5096 873d d0cc e73d
00000120: 1233 ccbd 203f a83d 7533 02be df4e cc3d
00000130: 36f7 3fbd 0b4f 5f3d 1505 2c3d 3e11 d7bd
00000140: 31a7 ca3d faed 21bd 79dd 073e 0cd4 1b3e
00000150: 9a2b 74bc e279 c03d cb15 db3c 0544 ab3d
00000160: 6e72 163d a274 aa3d 91f0 cebd 7337 aabd
00000170: 7bc3 e43d 6a0f f23d 3718 c4bc c003 4dbd
00000180: 042c b13d ca95 0abc 4727 233e 0caf 0d3e
00000190: f3eb 19be f699 c5bd 0d74 95bd f21f a6bd
000001a0: 49f2 06bd e763 94bd 9314 4f3d 194d a33d
000001b0: b576 093e 331e cf3c 9ff3 11be d161 debd
000001c0: 40a5 0f3d 54ec 4c3d 1425 033e 08c3 0cbe
000001d0: d65e 93bd c3ee 73bd 9384 c33d f782 e13d
000001e0: 5668 75bd 727f 6a3c c958 a63b 73be b43d
000001f0: 5d85 12bc 23e7 89bd 4c79 34bd d782 4cbd
00000200: 4650 773d e4cc 09be ecfe 863d cc50 c93c
00000210: ecd0 10bd 40ee d1bc d0b1 93bb 378f 4fbb
00000220: 2424 033e aad6 69bd e530 0fbd 0274 f13d
00000230: 8429 4bbd 6c9a 483d 1afa a8bd 9354 0b3e
00000240: b23d 95bc c9b5 b63d 5546 6fbd f083 6b3d
00000250: 3ba6 e13c 3005 703d 3d4e 23bd f880 fa3d
00000260: cebe c03d 241f 82bc 6d44 8e3c 39e9 0d3e
00000270: 7945 f13c 8ec1 4c3c d6be 68bd f82c edbc
00000280: b9a9 c33c 4bc7 153e b709 173e 08b6 eb3d
00000290: b896 6c3d 7d7a 933d b15e e53d ed15 ef3c
000002a0: 0932 0cbd 400f 713d 47c6 bd3d 8351 c2b9
000002b0: 8610 7ebd ecf4 dfbc 9a32 4f3d 12d5 1ebd
000002c0: 908a 03be d50b 87bd 0068 593c e595 1fbe
000002d0: cf26 fc3d f4a5 523d 6059 763c 6add 7f39
000002e0: 90fa a5bc 2fe6 17bd 7bd7 15bd 4594 4bbd
000002f0: 9096 c93c 4e19 b0bc 9861 083e a68e 39bd
00000300: eaee 2e3e 936a 6e3d 2fb6 02be 8833 c0b8
00000310: 52c9 0d3d 9a46 273c bd42 7fbb ca74 c83c
00000320: 0834 723d 1c38 023d 6139 c73c 1fd0 933c
00000330: 55c6 453b 90e3 983d eed4 933d 3b90 f53d
00000340: 445f a93d 6ade 7d3d 607e 613c d505 9b3d
00000350: 36e6 fa3d b900 a2bd 7412 bdbd 85f0 e4bc
00000360: bcb3 a93d 65fb a23d b96a 1fbd f01c c63d
00000370: 6615 85bd ec20 69bd 11d8 143e 3b6e e53d
00000380: aa8e 0e3b ec8d ee3c cf69 c439 6b2f ff3d
00000390: 7f18 57bd dd28 093e dba1 ca3d 9621 a43d
000003a0: 68a8 653c 462c 4538 ac3e e13b 6060 7b3d
000003b0: 29c9 a8bd d243 82bd 6d7a f5bb 301f a4bd
000003c0: 9fb7 afbd 5909 77bc 8663 19be 97a9 debd
000003d0: 7f99 b7bc 5150 cf3d b698 9dbd f7b9 26be
000003e0: d50f 8cbd 6c5b babd d8e6 993d c201 033d
000003f0: b75f 31bc d001 a73d cc67 0fbd 3d11 a03d
0.018965358 0.07463709 -0.07050977 -0.04770772 0.0420084 -0.12974983 -0.124068044 0.037138145
-0.055134498 0.0077269343 0.08396614 -0.037099943 -0.0758914 -0.05461867 -0.11893878 -0.053337622
0.048620544 0.045824923 -0.13016756 -0.06718008 -0.016961552 -0.023218963 -0.12109253 0.05511514
0.008507624 -0.009459585 0.14768912 0.15259111 0.10098506 -0.07088304 0.15302648 0.049634445
0.009439298 0.07263184 0.081417926 -0.05744255 0.11249564 0.0030800966 0.062537044 0.05595986
0.07404907 0.153413 0.11809939 0.13636549 0.11147062 -0.018089319 0.0593895 0.07515051
0.035762373 -0.08454231 -0.07800384 -0.11407673 -0.11155124 -0.09714749 -0.13694246 0.03810984
0.016955286 0.015700305 0.02673083 -0.13345097 -0.11377116 0.06343314 0.025714142 -0.009644588
-0.062094133 0.081913054 -0.030376768 -0.08985292 -0.07004519 -0.06323684 0.06620467 0.11318362
-0.099706784 0.08215165 -0.12714942 0.09975981 -0.046866618 0.05451874 0.041997034 -0.105013356
0.098951705 -0.039533593 0.13268079 0.15217608 -0.014902974 0.09398247 0.02674379 0.08362583
0.036730222 0.08323027 -0.10104478 -0.08311357 0.111700974 0.11819346 -0.023937328 -0.050052404
0.086509734 -0.008458564 0.15932952 0.13836306 -0.15031414 -0.09648506 -0.072975256 -0.08111562
-0.032945905 -0.07245617 0.05055673 0.079736896 0.1342419 0.025282955 -0.1425309 -0.10858501
0.035069704 0.050030068 0.12807113 -0.13746274 -0.07195823 -0.059553873 0.09546771 0.11011308
-0.059913956 0.014312612 0.005076502 0.08825388 -0.008942929 -0.06733539 -0.04406099 -0.049929466
0.06037929 -0.13457066 0.06591591 0.02457466 -0.035355493 -0.025626302 -0.004507281 -0.0031671056
0.12806755 -0.057089485 -0.03495874 0.11789705 -0.04960014 0.048975393 -0.08250828 0.13606481
-0.018217895 0.089213915 -0.058416683 0.057498872 0.027545085 0.058598697 -0.039869536 0.1223163
0.09411393 -0.01588399 0.017366612 0.13858499 0.029452072 0.012497319 -0.05682262 -0.028952107
0.023884641 0.14626805 0.147498 0.11509329 0.057760924 0.07201097 0.111997016 0.02918526
-0.034227405 0.058852434 0.09266334 -0.00037063294 -0.062027477 -0.027338468 0.050585367 -0.03877742
-0.12845826 -0.06594054 0.013269424 -0.15584524 0.1231209 0.051427796 0.015035957 0.00024401178
-0.02026108 -0.037084755 -0.03658245 -0.049701948 0.024607927 -0.021496441 0.13318479 -0.045302056
0.17083326 0.058207106 -0.1276481 -9.164872e-05 0.034615822 0.010209704 -0.0038949691 0.024469752
0.059131652 0.03179179 0.024319353 0.018043576 0.003017803 0.07465279 0.072183475 0.119904004
0.082701236 0.06197969 0.01376304 0.07569472 0.122509405 -0.07910294 -0.09232035 -0.02794672
0.08286235 0.07958106 -0.038920138 0.09673488 -0.06498222 -0.056916162 0.14535548 0.112026654
0.0021752515 0.029120408 0.00037462867 0.12460216 -0.052513596 0.13394494 0.09894153 0.080142185
0.014017202 4.7009693e-05 0.006873926 0.061371207 -0.08241493 -0.06360592 -0.007491401 -0.08013761
-0.08579945 -0.015077912 -0.14979371 -0.108721904 -0.02241206 0.10122741 -0.07695143 -0.16281877
-0.06838957 -0.090994686 0.07514733 0.0319841 -0.010826043 0.081546426 -0.035011098 0.07815788

feature_extractor.0.bias f4 [6]
00000000: 5848 80bc 6237 94bb 8a4f febd 29c8 0cbc
00000010: da3b aabd ce63 2bbd
-0.015659496 -0.0045232037 -0.124175146 -0.008592644 -0.08312197 -0.041843228

feature_extractor.3.weight f4 [16, 6, 5, 5]
00000000: fe30 85bd 17fe 1cbe a831 d2bd daa5 633c
00000010: ad35 9cbb 6110 cfbc 6995 0abe b29e 47be
00000020: 720f e3bd f308 143d d037 fdbd 83c1 5cbd
00000030: cf2c 03be 9c4f 2cbe 74c5 43bc a158 8cbd
00000040: 4df5 17be 143e 12be ca6e 00be c39f fcbd
00000050: d235 6ebd bf80 29be ed3c 44bb 9804 eebd
00000060: 4c74 a3bd 3535 3abd a344 293d 2d40 a03d
00000070: 7b39 27bd 49d8 10bd 809f babd 15d7 b13d
00000080: c210 963d f827 8b3d 1a9f 3e3d f65e 5b3c
00000090: 418f f53c f95f 903d ac3a 85bb 6eb8 fd3c
000000a0: 5806 123d f8b7 8f3c 76a4 0abc 126e 173c
000000b0: cf32 4b3d ea66 b5bd 1b2a 3bbd 7314 1e3c
000000c0: 831a 0fbd 2ec2 533d e2a4 c8bd 74a9 abbd
000000d0: b4c4 d7bd d6ac 313d 887e 2dbd 6740 30bd
000000e0: a88f dabd b28b 793c 6520 22bd 4b7c 3c3b
000000f0: cc97 d6bc 8575 51bd b300 8abd f816 d7bc
00000100: a5ea bf3d 01a6 69bd 27dd 873d 2206 c73d
00000110: 8884 fb3b cfb6 463c 813c cf3c bf81 acbc
00000120: e824 84bd 17f5 db3c e797 073d a433 01bd
00000130: 8df5 a33c 69f8 9dbd 34cc 403d 5fce 29bc
00000140: 8e92 b83c 5eaf 6c3d 0bc0 a6bd 5463 83bd
00000150: 69a8 983d 2201 453d ed2f afbc 68c6 f13c
00000160: 3fbf 69bb a754 9d3d ad09 b63c f6e7 593d
00000170: 75f9 3abd 9823 b73a cf6d 213d d0dc b7bc
00000180: ffc7 89bc e347 86bd c819 d33b 7cea 2dbc
00000190: 5a53 78bd 4826 eebd f77b d8bd 15f2 b4bd
000001a0: 95b7 f4bc cc75 f4bc 9dfc 853c d870 483d
000001b0: 321f aa3d 31ba 34bc e15a 853d 0c64 2f3d
000001c0: ce5e 753d f672 253d 88dc 33bc 79da 413d
000001d0: e003 c13d b69e 863d 142a b0bc ba1d c33d
000001e0: 9cbc 7bbd d7b3 923d 391e ee3c 284b 0abd
000001f0: 7cc3 15bd 3044 f8bc 5304 05be 3922 f9bd
00000200: 76c5 20bd f45e a7bc b074 94bd c5ac 6fbb
00000210: ff07 5f3d 806d 863d 407f 053d 1639 84bd
00000220: c9f5 29bd 633c 83bd 3099 ff3b 2b36 fbbc
00000230: 7b9f 4cba e222 843d 2fc6 85bd aa08 cb3c
00000240: f337 963d b78f 8a3b 8ee6 7abc 7a75 a0bc
00000250: 92e8 58bd e8ab 2e3d e937 12bc eb66 353d
00000260: 4472 c9bc d9d1 103d a6b6 3c3d 5e31 943d
00000270: a336 aa3d b74c fa3d e95a f83d 52b6 063d
00000280: fe51 013c b0e2 e93c 285a 1a3e 9525 8f3d
00000290: 5334 d23d ed72 bfbc 64a8 d63d c73c 173c
000002a0: 208e 8e3b d03d 45bb 453d 3b3d 6fec a13d
000002b0: c9be 2e3e e162 e33d 3512 0e3e 3aa5 123c
000002c0: 870e 9f3d bcd3 243c dd51 0abd b9bf 73bd
000002d0: 8dc0 c83d f860 083e 6a10 f23d ee23 7bbb
000002e0: 2134 96bb 398a 913d 0cb2 933c 4413 d63d
000002f0: bf8a aebc 877c a5bd af13 bb3d 8ef2 803d
00000300: 8a06 4839 18fd 7cbd 5af1 a6bd 68ab d2bc
00000310: 21cb cf3c 2863 37bb 2c7c a5bd 5a91 f0b8
00000320: d512 103d b5ad 6e3d 2fd8 16bd 2f53 2abd
00000330: fffb 0b3c b70d e03c 4a3b 20bd f55f 3d3d
00000340: 340b a93d 37a9 803d 1032 6e3c b1f7 36bd
00000350: 81cd 4c3d 27f5 e23c a997 1b3c c810 8ebd
00000360: 5dd4 08bb 65d8 8fbd 2fbd cfbc 82aa 6e3c
00000370: a479 b33d 1186 393d 0c57 6e3d 0163 b9bd
00000380: beef a1bd 9b74 8fbd c7cc 19bd 6311 483d
00000390: 74d6 fcbc 8248 adbd 17e9 813d af71 ba3c
000003a0: f641 b2bd 448c 05bd ccc6 8bbd 0af2 2ebd
000003b0: 74f8 83bd cc6e d5bb 5fb3 0cbd 4444 993d
000003c0: f52f e9ba ce45 14bd a84c 85bd 51c4 d13d
000003d0: e504 ba3b 3507 b8bc 1020 29bd f9fb 003d
000003e0: 5c36 843d 12c1 4d3d df5e d03b 2c8c 9e3d
000003f0: 4fd5 95bd d76d 8e3c 8b61 b23d 1c74 86bd
-0.06503485 -0.15331303 -0.102633774 0.013894523 -0.004767141 -0.025276365 -0.13533558 -0.19494131
-0.1108693 0.036141347 -0.12364161 -0.053895485 -0.12810062 -0.16827244 -0.011948932 -0.06852842
-0.14839669 -0.14281493 -0.12542263 -0.1233516 -0.058156796 -0.16553019 -0.002994354 -0.1162197
-0.07981166 -0.0454609 0.041325223 0.078247406 -0.040826302 -0.035362516 -0.091124535 0.08683602
0.07327415 0.06794733 0.04653845 0.01338934 0.029975535 0.07049555 -0.004065832 0.030971732
0.03565058 0.017543778 -0.008462062 0.009242551 0.049609 -0.0885752 -0.04569445 0.00964843
-0.034937393 0.051698856 -0.09797074 -0.0838193 -0.10535565 0.04337772 -0.042356998 -0.04303017
-0.106719315 0.01523106 -0.039581675 0.0028760608 -0.02619543 -0.051137466 -0.067384146 -0.02625607
0.09370927 -0.05704308 0.06633978 0.097179666 0.007675711 0.012128546 0.025297405 -0.021057962
-0.06452352 0.026850266 0.03310385 -0.03154339 0.020014549 -0.07713396 0.047069743 -0.010364144
0.02253082 0.05778443 -0.08142098 -0.0641543 0.07453997 0.048096783 -0.021385157 0.029513553
-0.003566697 0.07682162 0.02222141 0.05319973 -0.045648057 0.00139724 0.039411362 -0.022444159
-0.016818998 -0.0655668 0.0064422823 -0.010614987 -0.060626365 -0.11628395 -0.105705194 -0.08835236
-0.029872695 -0.029841326 0.016355807 0.04893574 0.08306731 -0.01103072 0.065114744 0.04282002
0.059904866 0.04039284 -0.010977872 0.047327492 0.09424567 0.065732405 -0.02150444 0.09527154
-0.06145917 0.07163208 0.029067146 -0.03376308 -0.03656338 -0.030305952 -0.12989931 -0.121647306
-0.039250813 -0.02043102 -0.07248819 -0.0036571485 0.054450985 0.06563854 0.03259206 -0.06456201
-0.041494165 -0.06408002 0.007800244 -0.030665478 -0.0007805747 0.06451966 -0.06531941 0.024784405
0.0733489 0.004228558 -0.015313758 -0.019587267 -0.05295617 0.04264441 -0.008924463 0.044287603
-0.024590619 0.035356376 0.046072625 0.072359785 0.083112024 0.122216634 0.12126715 0.032888718
0.007893084 0.028550476 0.15073454 0.0698959 0.10263886 -0.02337023 0.10481337 0.009230799
0.0043504387 -0.0030096658 0.045712728 0.07906424 0.17064966 0.11102844 0.13874133 0.008950526
0.07766443 0.010060247 -0.033769477 -0.059509013 0.09802351 0.1331824 0.11819537 -0.0038320976
-0.004583851 0.07106442 0.018029235 0.104528934 -0.021306394 -0.08080392 0.09134614 0.06296264
0.00019075922 -0.061764807 -0.08151503 -0.025716498 0.025365414 -0.0027982686 -0.080803245 -0.000114711656
0.03517421 0.05827113 -0.036827262 -0.041583236 0.008543967 0.02735029 -0.039119042 0.04623409
0.0825409 0.06282275 0.014538303 -0.04466981 0.05000067 0.027704788 0.009496608 -0.069367945
-0.0020878532 -0.07023696 -0.025358764 0.014567019 0.087634355 0.04529387 0.058188483 -0.090520866
-0.07907055 -0.070046626 -0.037548807 0.048844706 -0.030863978 -0.084610954 0.063432865 0.022759287
-0.08703987 -0.03260447 -0.06825027 -0.042711295 -0.06443873 -0.006513452 -0.03435075 0.07483724
-0.0017790782 -0.036199383 -0.06508762 0.102425225 0.005676853 -0.022464374 -0.041290343 0.0314903
0.06455681 0.050232954 0.0063589658 0.077415794 -0.07316076 0.01738636 0.08710011 -0.06565115

feature_extractor.3.bias f4 [16]
00000000: 87b8 33bd c74d fc3b ee74 10bd cff4 babd
00000010: 0fd5 8fbd 0db3 20bd f8bb 6bbd 015e cabc
00000020: 4158 893d 2f57 35bd b711 233e dee7 b43c
00000030: cccb e23b 68d0 ca3b 1709 c4bd 23dc ce3d
-0.04387715 0.0076997015 -0.035267763 -0.09128725 -0.070230596 -0.039233256 -0.057552308 -0.024703028
0.06706286 -0.044272598 0.15924726 0.02208322 0.006921267 0.0061893947 -0.09572046 0.101005815

classifier.0.weight f4 [120, 400]
00000000: de96 8dbd 7d6a af3d 8efa 183d 099c 8d3d
00000010: b5c8 c83b a906 95bc a8e4 6ebc 7ef1 fdbb
00000020: e6e8 c03c 616c 78bb dab2 0fbd 3bd7 99bd
00000030: affa 853c c29a a93d 54a1 74bc 5042 b0bc
00000040: 9690 f1bc ad80 20bc c14d ab3c bca0 9dba
00000050: 0ddb a8bd 65a3 ec3b 06bb f73c 9673 e83c
00000060: 1898 e53b 5d7b 0e3d 4744 553b 79d0 49bd
00000070: 44ff 42bc 4319 78bd 182f 5b3c 102b 213c
00000080: a691 6abb 1ac0 86bc 9830 20bd 0e4b cdbc
00000090: 9f10 35bd 5527 853c 144f 41bc 4fc5 21bd
000000a0: 18a8 6c3d b74a 31bd 348e 513c d563 88bd
000000b0: b18a 24bd d99f ea3c 1c2a 553d f5be 553a
000000c0: c814 533c f274 2738 7c7a ca3c b24e 5ebd
000000d0: 515a 6c3c 73a0 0cbd 70d9 e5bc b69d e73d
000000e0: 509a e73d 3887 953c 5555 363c 8b44 81bd
000000f0: f5e4 c4bc 783f b43d c0a6 8bbc b8fd 0dbd
00000100: c013 5b3d 0044 07bd 1510 97bc ae2f 563c
00000110: f676 e1bc a70f 57bc 5049 cfbc 3ce1 233d
00000120: 5dc5 abbc ff5d 02bd 31c2 1cbd 5d58 05bb
00000130: 1c8b dabd 2333 90bd 4909 91bd a294 80bd
00000140: 4a29 4a3d 5e5a 8abc 765c 8e3d 6852 5fbd
00000150: 8139 8ebd 1360 123e ea42 06bd 108f 71bc
00000160: 0b8c 64bc 38c0 e6bd 7909 a03d fd69 993d
00000170: 6648 82bc 838f 533d 07f0 123d ba5f 8dbd
00000180: f381 e93c 8735 e0bc 99f5 a03c 69ac a4bb
00000190: f45e 953c 8058 1abd f613 7e3d 8b5c 3f3c
000001a0: 6069 d2bb 3bf4 89bd f3f3 adbc d597 b03c
000001b0: cca3 b53c 488b 5bbb 325f 05bb d49e ce3c
000001c0: b48b ac3c b105 5bbc 1825 bf3b cc34 d53c
000001d0: 8d1f 463a 423a 35bd d2db 263c 40c9 893c
000001e0: 0e30 4ebd 658c 9e3c 448e 21bd 216a 23bd
000001f0: 8422 3a3d 4023 8bbd 664a 8ebd 8f25 8abd
00000200: 059a 8dbd bd1c d2bc ff06 933b 7fa6 323c
00000210: 205d b5bc 53a5 2c3b 296f 6abd 06fb ae3a
00000220: 5faf 103c bec2 68bc d9ba 19bd b62c ec3b
00000230: 0b73 3ebd 1e7b bc3b 7828 07bd 1149 19bd
00000240: 4dfd 8c3d a7a5 6b3c 3b68 0f3c 62ae 4fbd
00000250: 4edf d43b b8d9 1a3d ceda 8f3d 699e 53bd
00000260: e012 a6bd 3a08 30bc 5483 bfbd 7d8f 4abd
00000270: 101f ab3d 56ed 033d 0d36 883d 8ba3 4fbd
00000280: 0519 793d 8439 ac3d 8239 853d 8f06 223d
00000290: bc19 94bc 68d2 313d 4e62 ce3d cbcf 8b3d
000002a0: d9be b43c 2140 d53d cda0 9e3d 1737 54bb
000002b0: 2aac 393d 7feb b03c 6fb8 b7bc a11b 153d
000002c0: 2fa0 afbd 2ac1 9dbc 701c 0b3d ff64 de3c
000002d0: ff6e 593d 0370 b6bc 8a76 4dbd 9157 203d
000002e0: 3d76 193d 7760 1cbd 06a4 3b3d 61b7 c9bc
000002f0: 7ecb 3b3d b737 e93d a931 5cbd 7d99 7cbd
00000300: 86e8 9dbc 4f58 05bd 03e7 3c3d 059e 3fbd
00000310: 4229 93bc d9b8 a1bc f2db 773c 24a3 24bd
00000320: ebb5 eabc 48ec 06b9 e13f a5bc 1b39 a6bd
00000330: 06ac 353c 208b 533c 23cd 5f3d 072f 953d
00000340: a859 1ebd 548b 73bc ed9f 973d 904f 6d3c
00000350: 1534 4e3d 4ab9 2b3d 49de 6abd 31fe 4a3d
00000360: d20b 073e 5639 0abd 0ae1 5f3d 8337 0c3d
00000370: b150 43bd 193e a0bc 69cb e2bc 6573 59bd
00000380: 05aa e03d 0ae9 1cbd 97ef 183d a8e4 bb3c
00000390: d59d 48bc db5c 48bd 28a4 72bd 3b97 db3c
000003a0: 4ed0 863d 0546 2f3d 7496 783c 4cae 90bd
000003b0: 95a5 a63b 0c49 663d 0c8e f53c 7464 82bd
000003c0: 2fa0 8e3d abc4 813d 08aa 863d d1ba 323b
000003d0: 3d67 6cbd c3c1 57bd de45 2dbc 93bf 673d
000003e0: 61f0 013d 069d 333d 5413 90bb 151e c6bc
000003f0: ed29 823d 2123 113d 4ecd b4bc dbec 0cbd
-0.06913541 0.08565233 0.037348323 0.06914527 0.006127442 -0.018191652 -0.014580883 -0.0077497354
0.023548555 -0.0037906396 -0.035082676 -0.07511755 0.016354887 0.08281471 -0.014931042 -0.021515995
-0.02948789 -0.009796304 0.0209111 -0.0012026052 -0.082449056 0.0072216266 0.030240547 0.028375428
0.0070066564 0.034785617 0.0032541917 -0.04927108 -0.01190168 -0.060570966 0.013377927 0.009836927
-0.003579238 -0.016449023 -0.039108843 -0.025060203 -0.044205304 0.016254107 -0.011798639 -0.03949481
0.057777494 -0.043284144 0.0127902515 -0.066596664 -0.04017133 0.028640674 0.05204211 0.000815376
0.012883373 3.9924817e-05 0.024716608 -0.05427427 0.01442583 -0.034332704 -0.028057784 0.11309378
0.1130873 0.018252954 0.011128743 -0.06311902 -0.024034956 0.08801168 -0.017047286 -0.034665793
0.053485632 -0.033023834 -0.018440286 0.013072891 -0.027522545 -0.01312629 -0.025303513 0.040009722
-0.020968134 -0.031827923 -0.038271133 -0.0020346858 -0.10671064 -0.070410036 -0.07081849 -0.062783495
0.049355783 -0.016888794 0.06951229 -0.054521948 -0.06944562 0.14294462 -0.032778658 -0.014743581
-0.0139494045 -0.112671316 0.07814307 0.07490919 -0.015903663 0.051650535 0.03587344 -0.06903024
0.028504347 -0.027369274 0.01964836 -0.0050254357 0.018233754 -0.037682056 0.062030755 0.011679779
-0.006421253 -0.067360364 -0.021234488 0.021556774 0.022172831 -0.0033499766 -0.002035093 0.02522222
0.02106271 -0.013368056 0.0058332793 0.026026152 0.0007557802 -0.044245012 0.010184245 0.016819596
-0.050338797 0.019354055 -0.039442316 -0.039896134 0.045443073 -0.06793833 -0.06947784 -0.06745445
-0.069141425 -0.02564847 0.004486918 0.010903954 -0.022139132 0.0026343658 -0.057234917 0.0013349957
0.008830874 -0.014206586 -0.037531707 0.0072074784 -0.046496432 0.0057519814 -0.03299758 -0.037423197
0.06884251 0.014382756 0.008752878 -0.050703414 0.0064963466 0.03780529 0.070241556 -0.051664744
-0.08109069 -0.010744149 -0.09351221 -0.049453247 0.08355534 0.032208763 0.06650934 -0.050693076
0.060814876 0.08409408 0.06505109 0.039557036 -0.018078677 0.04341355 0.10077344 0.06826743
0.02206366 0.10412622 0.07745514 -0.003238147 0.045330204 0.021596668 -0.022426812 0.036403302
-0.085754745 -0.019257147 0.033962667 0.027147768 0.05308437 -0.022270208 -0.050161876 0.03914601
0.037466276 -0.038177934 0.04581072 -0.024623575 0.045848362 0.1138758 -0.053758297 -0.061669815
-0.019275915 -0.03255492 0.046118747 -0.04678156 -0.01796401 -0.019741463 0.015128123 -0.040194646
-0.028651198 -0.00012867257 -0.020172061 -0.08116361 0.011088377 0.012911588 0.054638993 0.072843604
-0.03865972 -0.014864761 0.0740355 0.014484301 0.050342638 0.041924752 -0.057340894 0.049558822
0.13188103 -0.033746086 0.054657973 0.034232628 -0.047684375 -0.01956086 -0.027684884 -0.053088564
0.10969929 -0.03830818 0.037337866 0.02293618 -0.012244661 -0.04891668 -0.059238583 0.02680551
0.065827 0.042791385 0.01517259 -0.070644945 0.005085657 0.056222007 0.02997496 -0.06366816
0.06964146 0.063363396 0.065754 0.0027271996 -0.057715643 -0.05267502 -0.01057574 0.056579184
0.031723384 0.04385092 -0.0043968353 -0.024184266 0.06355653 0.035433892 -0.022070553 -0.03440557

classifier.0.bias f4 [120]
00000000: c27b 4f3c c0a1 48bc 83a4 353c a9f5 e7bd
00000010: 5c4f 1d3d d4e4 0a3d d00e 8b3d d22d 0a3c
00000020: cbe3 703d 4bfb 6b3d c184 adbd ffc2 7e3d
00000030: 9915 2bbd 5d98 c93c 1e9c c43c a1a1 bf3b
00000040: 7142 07bd 80ac acbd e839 383c c48e 96bc
00000050: 756d ae3c 7d2e 853d c4ad be3b 1de7 16bb
00000060: 7676 f7bb f82b 093d 998d c83d 8758 813d
00000070: b33e c23c 4606 d8bc c35d 26bd 3bf1 e33c
00000080: c9d9 87bd c701 fcbd 184a a1bc 241c d0bd
00000090: 1aaa abbd d8f3 683d ab1c 37bd a678 b73c
000000a0: afa0 583a 1627 06bd fbf3 873a cb8c 333d
000000b0: 132a 483d d1e8 923d e0c9 1a3d e4fc d0bd
000000c0: 18cb 903c 3cc4 bcbc 8825 1bbc 336e 0bbc
000000d0: a771 703c 21a8 96bd 88f9 aabd cbb6 a43c
000000e0: 1af6 d6bb 1a52 a53d ebdc 8dbc 4602 1a3d
000000f0: 7214 713d 2ada 0bbd 5200 04be c930 24bc
00000100: d6c8 673d a64a 02bd d277 ca3b 3be9 373d
00000110: ad7f 8d3d dc58 9c3d fd16 adbd ec58 c53c
00000120: 301b 78bd f252 b83c 9bcf cebc c07d ed3c
00000130: c932 9cbc 6147 2ebd 2c09 9abb 7c0d 5fbd
00000140: 0cac 723d 4acf 1dbb 5fbd aabd cc72 b5bd
00000150: 4744 fd3c 6704 b03c ce06 803d 6661 a4bd
00000160: 5b1b 2ebd f901 18bc 91aa ac3d a153 d33c
00000170: 183b bb3c 052b 81bc cfd2 a4bd 2520 a63d
00000180: 64c6 a9bc bdd3 883d eab4 42bd 374a 823d
00000190: 0af4 23bd 4277 ab3b 08d9 793d 14b7 f0bb
000001a0: c1c6 d73c fd63 2a3d 6b55 3e3d 3e62 e4bd
000001b0: 580a 4b3d d0db eebc 7119 7d3d 79cf ac3d
000001c0: ab02 a23d 1845 1c3d 615f 0fbc 1791 afbc
000001d0: 25ec d2bc c84e 0e3d 3b9a 003c 0bed 653c
0.0126637835 -0.012245595 0.011086586 -0.11326153 0.03840576 0.033909634 0.06789935 0.008433776
0.05881099 0.0576127 -0.084725864 0.06219768 -0.041768644 0.024608785 0.024000224 0.005848125
-0.033022348 -0.08431339 0.011244275 -0.018378623 0.021292428 0.065030076 0.0058190543 -0.0023025938
-0.0075519634 0.033489197 0.097926326 0.063157134 0.023711538 -0.026370179 -0.040616762 0.027824989
-0.06633336 -0.123050265 -0.019688651 -0.101616174 -0.08382054 0.056873173 -0.044705074 0.022396397
0.000826369 -0.03275212 0.0010372394 0.043835443 0.04886825 0.071733125 0.03779018 -0.10204485
0.017674968 -0.02304279 -0.009469397 -0.00851016 0.014675534 -0.07356287 -0.083483756 0.020106694
-0.0065600993 0.080723 -0.017317256 0.037599824 0.05885739 -0.034143604 -0.12890747 -0.010021397
0.056588016 -0.03180947 0.0061788345 0.04490016 0.06909118 0.07634136 -0.0845165 0.024090253
-0.060572803 0.022500489 -0.025245478 0.028990626 -0.019067185 -0.04254854 -0.0047008004 -0.05445622
0.059246108 -0.0024079853 -0.08336901 -0.088597864 0.030916346 0.021486474 0.06251298 -0.0802639
-0.042506557 -0.009277814 0.084309705 0.025796713 0.022855327 -0.015767584 -0.08048021 0.081116
-0.020724483 0.06681011 -0.047535814 0.063618116 -0.040027656 0.0052327225 0.060997993 -0.0073460434
0.02633989 0.041599263 0.04646818 -0.11151551 0.04957041 -0.02915755 0.06179184 0.0843801
0.07910665 0.03815183 -0.008750767 -0.021431489 -0.025747368 0.0347431 0.007849271 0.014033566

classifier.2.weight f4 [84, 120]
00000000: f7d3 a43a 61d3 bb3d 4f4c 7fbd 2596 19be
00000010: 231a dabc fb04 28bd 71fa 75bd 10cf de3c
00000020: fcba ed3b 0306 35bd f5c2 e8bc d6e0 86bc
00000030: 9177 5d3d 44d0 0a3c b701 46bd 2380 833c
00000040: 5bd6 533d 5400 12bd ef70 b53d 03de a23d
00000050: 631a 45bd ca92 ae3d d553 afbd 5c4d df3d
00000060: b233 debd a47a ab3a b22a a43c 9439 5e3d
00000070: 30ef 0bbd 0051 67bd 2884 443c ca43 043d
00000080: 04d7 64bd e301 36be 3728 223d 4cf2 e2bc
00000090: 2974 02be f953 663c e5a6 ffbd 9901 5e3d
000000a0: 7e96 a03d 666e efbb 2f8d 0ebd d3bd 1c3d
000000b0: 87de 90bd 8ae3 0e3d 92e5 aa3d 4b37 81bc
000000c0: bcc3 0a3d 271a c83d fa91 773d f9dc f8b9
000000d0: c8d2 01bc bad8 eabd be78 c4bc d396 85bd
000000e0: c0e3 023e 9118 fa3a 98f9 b83c 7cf9 263e
000000f0: 11fb 66bc ac94 1dbd f634 43be ea81 b2bc
00000100: 1d3e 743d 78e7 d2bc 3944 a0bd d7dd ce3d
00000110: 0767 32bd e0f2 2e3d 4259 3dbe 867e a43d
00000120: ee17 6ebd fd1d 84bc 0ec7 8f3d 9c48 4c3d
00000130: 5827 bbbd 5bfd 63bd 43b7 573d 4145 443c
00000140: 6fc9 c6bc 3714 9cbd 7c58 c03a 15a9 b2bd
00000150: 707b 223e 595a b3bd d348 433d 1556 55bc
00000160: 8d0e 72bc 7da5 13bd 11f3 803d 7021 a93d
00000170: 15b9 cfbd 8bb8 3ebd a413 7e3d 736b c23d
00000180: d04a a03c 8bc5 c6bc 137a c7b9 490f dc3d
00000190: b80d 2cbd 549b f3bd ea4a 3f3d 795d ebbc
000001a0: cdf7 9bbd 3f1f 023d f7cf 153e eeac 08bd
000001b0: e136 35bc c9bc 063e 81e7 953c 8b30 3d3d
000001c0: 0651 9f3c e6eb 2a3e d8a2 09bd e8d8 7ebc
000001d0: d2c3 07be 7d3f 403d 72ac a7bc f74c 0a3c
000001e0: cfe3 033e 4a52 133e 16d2 373d 5890 bd3d
000001f0: 68aa 2fbd 3c2f 8c3c bce3 ae3d f741 1ebd
00000200: 128d 2fbc 1c78 d23d b2b5 43bc 86e6 80bd
00000210: 5a7e 853c b0c8 023e f415 83bd e338 033e
00000220: 8263 e13b fa26 7fbd fe45 e0bd 5ada ab3c
00000230: c076 8dbd 4a04 c03d 6282 e03d 78e6 3cbe
00000240: e9d6 16be 085e 823d b334 133e 9e66 b63d
00000250: 8d31 4bbd a008 dcbd 334a 01bd 5a7c d03d
00000260: f25a f03c 1fb8 2c3c 7cce 813c b84b 86bd
00000270: 7166 c9bd 44f1 b53c 458e 8c3c 8a46 923d
00000280: d1cf 6539 b860 c63b bb24 1ebd 7bc6 ff3c
00000290: 8390 ee3d 8ba3 f83d 46c2 503d a2bb 753c
000002a0: 8c72 a63d 55ed 03be cbe5 f9bc 7240 f3bc
000002b0: 43c7 8f3d c5d7 abbd e4b6 683c de75 d939
000002c0: 93e6 0bbd 7581 df3d c48b d1bd b774 25bd
000002d0: bcb7 473d 30c7 6ebc 9098 cd3d 683f 14bd
000002e0: f399 1d3d 55ca 703c be73 28bc b292 b73d
000002f0: cabe 663d 470b 833d 0d1c 66bc ee12 303c
00000300: 40d6 b53d 3d2e 0ebd 7443 d0bd d5e5 c0bc
00000310: 2949 aa3d d5fb e13d e88d 043d 906f 733d
00000320: 5c68 bf3d ed38 393d 0f16 9c3b b7b2 74bc
00000330: f633 b83d 9f0d 973d e762 e93a b278 fa3b
00000340: 69db 8fbb 5800 95bc 2605 90bc afa7 513d
00000350: 2870 993d fc13 a63d c6ae f1bd f00a abbd
00000360: 2f2f 04be d5d9 11bd e2c5 1ebe 32ef 713b
00000370: 449b cebd f7ae 08be 62db 363c 3ddf 203e
00000380: 9fd6 c43b 9631 8d3d 792c 663d b228 0ebc
00000390: 57ab 18bd ae70 54bd 1b0c 963d cbe8 2e3e
000003a0: af09 68bd 244e d0bd fd52 5c3d 0901 d73d
000003b0: 4252 8c3d d08b 413d 3905 ab3d 20da c13d
000003c0: b975 66bd 5bab 813d 28da 8a3d 1b82 933d
000003d0: 0adb 17bd f24e 8e3d 28c0 d5bd ebb5 8eba
000003e0: 388c 3e3d 3720 e83c 95ef 63bc de38 383d
000003f0: 3e19 0cbd cd73 ca3d 193e 1a3c fdba 54bd
0.0012575377 0.09171177 -0.062328633 -0.14998682 -0.026623791 -0.041020375 -0.060053293 0.027198344
0.0072549563 -0.044195186 -0.028413275 -0.016464632 0.054069106 0.008472506 -0.04834148 0.016052311
0.051718097 -0.035644844 0.08859431 0.079525016 -0.048120867 0.085240915 -0.085609116 0.10903427
-0.10849704 0.0013082814 0.02003989 0.05425413 -0.034163654 -0.056473732 0.011994399 0.03229121
-0.055869117 -0.17774157 0.039589133 -0.027703427 -0.12739624 0.014058107 -0.124830045 0.054200742
0.07841204 -0.0073068617 -0.034802612 0.038266968 -0.07073694 0.034884967 0.08344568 -0.015773436
0.033878073 0.09770613 0.06044195 -0.00047466884 -0.007923789 -0.114671186 -0.023983356 -0.06522908
0.12782192 0.0019080808 0.022579953 0.16306108 -0.014097945 -0.038471863 -0.19063172 -0.021790463
0.05962955 -0.025745139 -0.078255124 0.10100906 -0.043555286 0.042712092 -0.1849108 0.08031945
-0.05812829 -0.01612758 0.070203885 0.049873933 -0.091383636 -0.05566154 0.052665006 0.011979402
-0.024265973 -0.07621043 0.0014674808 -0.08723656 0.158674 -0.08757467 0.047676872 -0.013021012
-0.014773977 -0.036046494 0.06296361 0.08258331 -0.101427235 -0.046562713 0.06203045 0.094931506
0.019566923 -0.024264118 -0.0003804719 0.10745103 -0.04200527 -0.11894861 0.046702303 -0.028731095
-0.076156236 0.03176808 0.14630114 -0.033368044 -0.011060447 0.13157953 0.018298866 0.046188872
0.019447815 0.1669155 -0.033602566 -0.015554644 -0.13258293 0.046935547 -0.02046797 0.008441201
0.12879871 0.1438686 0.044878088 0.09256047 -0.04288712 0.017112367 0.08539531 -0.038637128
-0.010714786 0.10276815 -0.011945175 -0.06293969 0.0162956 0.12771869 -0.064006716 0.1281467
0.0068783173 -0.06229303 -0.1095085 0.020978142 -0.069074154 0.09375818 0.109623685 -0.18447292
-0.14730419 0.06365591 0.14375572 0.089062914 -0.049607802 -0.107438326 -0.031564903 0.10179968
0.029340241 0.010541945 0.01584553 -0.06557411 -0.09833992 0.022209771 0.017157683 0.071423605
0.0002191656 0.0060540102 -0.038609248 0.031222573 0.11648657 0.12140568 0.050966524 0.014998348
0.08127317 -0.12883504 -0.030505082 -0.029693816 0.07020428 -0.08390764 0.014203761 0.00041477283
-0.03415544 0.10913364 -0.10231736 -0.04039451 0.048759207 -0.014573857 0.100388646 -0.03619328
0.038476896 0.014696677 -0.010281501 0.08963527 0.056334294 0.06398635 -0.014044774 0.010746701
0.088787556 -0.034712065 -0.10169116 -0.023547092 0.083147354 0.11034361 0.032361895 0.059432566
0.09346077 0.045220304 0.004763372 -0.014935187 0.08994286 0.07375645 0.0017805964 0.0076437825
-0.0043901694 -0.01818864 -0.01758058 0.051185306 0.07492095 0.081092805 -0.118009135 -0.083516955
-0.12908624 -0.03560813 -0.15505174 0.0036916253 -0.10088208 -0.13347994 0.011160703 0.15710159
0.00600703 0.068942234 0.056194756 -0.008676695 -0.037272777 -0.051865272 0.07326528 0.17080991
-0.05664986 -0.10171154 0.05379008 0.10498244 0.06851627 0.047252476 0.083506055 0.09465432
-0.056264613 0.063315116 0.06779891 0.0720255 -0.037074126 0.069486514 -0.104370415 -0.0010887956
0.04652044 0.028335674 -0.013912101 0.044976108 -0.03420376 0.098853685 0.009414219 -0.05193614

classifier.2.bias f4 [84]
00000000: 7b2e 0a3e 8b4f 7cbd c6f2 153d c6b9 c8ba
00000010: 4fe9 0dbd d5b0 a53d 2aa4 1bbe bed7 a9bd
00000020: 4181 ea3d 77fe d93c c2bb 4fbd d287 673d
00000030: 21d6 9d3c 6dbb 723d fc04 2dbd fe50 c8bd
00000040: 4022 81bc 4877 b7bd 5fad 7cbb fd19 a6bd
00000050: b783 c9bc ed6e 83bd 6239 36bd b8b3 173d
00000060: dcc2 e0bd c41a a2bd 7a6d 3abd 84a4 8e3d
00000070: edd7 84bd 0bee 7abc 3f69 53bd 7711 c2bd
00000080: 2f47 c6bd bcdf c23d c991 f53d 3c1d 83bd
00000090: 438f 84bd 402d 8b3b 2f8d 643d 8e1a 90bc
000000a0: 4c2b 0a3d d8fb a43d 1121 83bd fe44 a9bd
000000b0: 83dc 90bc 3511 0ebc f551 aabd 4a3c d6bd
000000c0: 889c 873c 71c8 f2bc 7b20 e13c 8597 b93d
000000d0: 65ab 4fbb 6e77 bf3c 9d6e 93bc 2ae7 383c
000000e0: 620e 4c3d 4814 c43c 3f92 463c 1c1e fabd
000000f0: 4a58 25bd 9f2d 9abb 3dfa 8cbd 46e6 ce3c
00000100: d8b2 693d a701 7ebd f894 ecbc c4b9 e1bd
00000110: 9685 933d 19d2 69bc de68 8d3c 31c3 003e
00000120: 3c54 403d 26ed 98bd aae6 f9bb 12e6 db3d
00000130: 845b 43bd 47ce 1fbd c2b8 72bd 30c7 ffbc
00000140: b0b1 53bb 0fbe 9cbd 8bd5 7fbd 12fe c13d
0.13494293 -0.061599296 0.03660848 -0.0015314154 -0.03464633 0.08090369 -0.15199342 -0.08293103
0.114504345 0.026610596 -0.05071617 0.056526013 0.019267144 0.059260774 -0.04224108 -0.09781073
-0.015763402 -0.08958298 -0.0038555486 -0.081104256 -0.02459894 -0.06417642 -0.04448832 0.037036628
-0.109746665 -0.079152614 -0.04551456 0.069649726 -0.06486497 -0.015315543 -0.051614042 -0.094759874
-0.09681546 0.0951533 0.11990697 -0.064020604 -0.064726375 0.0042473376 0.055798706 -0.017590787
0.033732697 0.08055848 -0.06402791 -0.08265112 -0.017683273 -0.008671095 -0.08316413 -0.10460718
0.016554132 -0.029636594 0.027481308 0.09062103 -0.0031687852 0.023372378 -0.01799708 0.011285583
0.049818404 0.023935452 0.012119829 -0.12212774 -0.040367402 -0.0047051455 -0.06883667 0.025256287
0.057055324 -0.062013295 -0.028879628 -0.1102176 0.07203214 -0.014271283 0.017261919 0.1257446
0.046955332 -0.074671075 -0.0076263743 0.10737242 -0.047694698 -0.03901508 -0.05925823 -0.03122291
-0.0032301955 -0.07653438 -0.06245951 0.09472288

classifier.4.weight f4 [5, 84]
00000000: 9c90 303d 731b 663e 380d 13be 438f 543c
00000010: b2af 133d 7c48 0fbe ebb1 91bc 290e 153e
00000020: 971d e53d be52 49be d443 773d 18a5 073e
00000030: ecf3 a9bd 1ba4 eb3d 7f28 72be 8cb9 d8bd
00000040: 06ce 4a3e b503 2abe bab1 2fbe 2240 41be
00000050: e667 c13d b3fd 1cbe 58d7 7b3e 7a2b 693e
00000060: c71e 0ebe 842c f2bd fe86 59be 86e7 113e
00000070: cde4 25be 0c4f ccbd 3f57 0e3e 8e5a b3bd
00000080: 0751 ec3d 3056 343b 5937 9fbd 45d0 aebd
00000090: 255e a63d a071 76be 10cc 47be 7a38 ed3d
000000a0: 7f5a 3dbe cf1b 683e b8e8 7c3e f0a4 3dbe
000000b0: 1fb3 51be bc4f 803e 5e8b 8b3a 1a0f 48be
000000c0: e080 d3bd a6f1 1fbe d75c f93d 385e 8fbd
000000d0: 6a10 c43d a96d 803e 9d69 35be 1038 c03c
000000e0: 37f4 873c b8b6 853d 992d 0b3e 0a44 7dbe
000000f0: 5edd e2bd ca21 54be 733d 153d cd31 453d
00000100: be4d 053e fa4a b83d c43f 99be 5e68 cabd
00000110: 0510 77be 599c 983e b6a1 7c3d ea1e bf3d
00000120: ddf8 31be 1559 073e d1fc 163a 756c 633e
00000130: 011c 943d 8f49 6d3d cb11 bbbd 962c 303e
00000140: 8d60 5b3e 78c1 99bc c4b2 28be 4319 00be
00000150: 9e12 dc3d a088 1f3e 6dac 363e a15a 223e
00000160: 9dfb 46be 2298 71bb 1e6d 84bd 1673 0e3e
00000170: cc60 41be 8389 943d 1f43 e3bd 496d 49be
00000180: 0872 61be 2d39 b53d 3ecb a8bb c74b 103d
00000190: 3cb5 3bbe 0874 613e 70ba 273e 87ea a03c
000001a0: 60e7 6a3d 76a1 8d3e 5f3e 97bc b9fc 09be
000001b0: bbca 3fbe 7386 44be f1d3 b63d e924 38be
000001c0: 2b3f 12bd 9df4 423e 0385 f0bc 380b f73d
000001d0: 6d00 103e 07cf 2c3e a867 953d 79b4 763e
000001e0: 2ea9 dc3d f0b7 2cbe d89f 143e acd0 aebd
000001f0: 152b 26bb 61e7 da3d f037 1bbe 8afb 753e
00000200: 2a6e 993d cc88 0abe a618 9fbd 626e 42bd
00000210: b049 a03b f54e 553e 4532 3bbe 2849 eb3d
00000220: 8f8b 01be e04e 02be c628 083e 6c83 17bd
00000230: a745 f83d 4226 3bbe 2c5d 0dbe 6fa7 f53d
00000240: 8317 d03d f8a7 4ebc f0a7 27be dbf6 0fbe
00000250: 05b4 6a3c ae11 0a3e 3b39 d0b9 8fdb 0ebe
00000260: 3b7b 2abd 35b7 983b 5792 35be 2f49 4d3d
00000270: 4609 2f3d 1e2d 15be d0aa 81bd cf03 213e
00000280: d4f6 023e 4f15 3e3e 6d2b a33d 0b67 29bd
00000290: bb30 89bc b232 443e 58b1 ffbd 5b1e f43d
000002a0: 6429 233d f740 60bd ad7a 95bd a1da 953d
000002b0: 73d1 dc3d ec1e 3fbe b7d7 913d b5e4 903d
000002c0: c871 f83d aceb f63d 756f 13be 0f7a cebd
000002d0: 692c 8b3e 99c4 c23d 6458 743e 981a 12be
000002e0: 8f9c c0bd 0384 be3c 3f0d e63d 6ab8 053e
000002f0: fb92 2b3e a1d0 bbbc 456f 4abe a2f3 19be
00000300: a5d8 b1bd a8d5 af3d 373f b9bd 3b0a 78bc
00000310: cd8e e73d 9207 00be e140 053e 7ffa 873c
00000320: 4f2a 073e f80c acbd 37e8 3abe 60c1 0cbe
00000330: ca25 0f3e dfa7 3f3e a017 1a3e 003a 703d
00000340: 019d d8bc 2e26 98bd 3574 67bd a693 48be
00000350: 73f1 e03d f207 22bd 12c7 f73c 6c34 cebd
00000360: f07d 36be a105 f7bd 7bed 023e 9c6a 163e
00000370: df5f 6c3e 5f36 19be d073 3e3e cfee 05be
00000380: 9ebd 203e e221 20bd 7cf1 cb3a 50a8 343e
00000390: 595f 0fbe 5062 913d 2478 0c3e afdd 1a3e
000003a0: 0cc6 783d 442e 20bd 0ebc 193e 0517 2cbd
000003b0: 6882 623e 7443 38be 2d1e 08bd adbe f7bd
000003c0: b3b4 c53d c9cb 143e 59bb c7bc 0735 6cbe
000003d0: 9637 2dbe 72b4 4abe 02f7 ba3d c537 bcbd
000003e0: 1347 2ebd 9a68 b1bd 3589 563e 7c29 593d
000003f0: 4f9c 8dbe 01ce 153e 4f65 423e b5b2 81be
0.04310666 0.22471409 -0.14360511 0.012973609 0.036056228 -0.13992494 -0.017785033 0.14556183
0.111872844 -0.1966047 0.06036742 0.13246572 -0.082984775 0.1150591 -0.2364826 -0.10582265
0.19805154 -0.16602977 -0.17157641 -0.18872121 0.09443645 -0.15331154 0.24593866 0.22770491
-0.13878928 -0.11824897 -0.21242902 0.14248475 -0.16200562 -0.099760145 0.13900469 -0.08757506
0.11538892 0.0027517192 -0.077742286 -0.08535818 0.081234254 -0.24066782 -0.19511437 0.11583038
-0.18491553 0.22666858 0.2469815 -0.1851995 -0.20478486 0.25060833 0.0010646393 -0.19537011
-0.10327315 -0.15619525 0.12175911 -0.07000393 0.09573443 0.25083664 -0.1771607 0.023464233
0.016595943 0.065289915 0.13591613 -0.24732986 -0.11077379 -0.20716015 0.036435556 0.048143197
0.13017938 0.08998676 -0.29931462 -0.09883188 -0.24127205 0.29806784 0.061677657 0.09332068
-0.1738009 0.13217576 0.00057597185 0.22209342 0.07231904 0.05793148 -0.09134253 0.17204508
0.2142355 -0.01876901 -0.16474444 -0.12509637 0.107457384 0.15579462 0.17839213 0.15854885
-0.1943192 -0.003686436 -0.06466125 0.1391109 -0.18884581 0.07252791 -0.11096787 -0.19670595
-0.22016156 0.08848796 -0.0051511815 0.035228517 -0.18330854 0.22016919 0.16379714 0.019643081
0.057349563 0.27662247 -0.018462358 -0.13475312 -0.1872968 -0.19191913 0.08927143 -0.1798283
-0.035704773 0.19038625 -0.0293603 0.12062687 0.14062662 0.1687585 0.072951615 0.24092282
0.10774456 -0.16867042 0.145141 -0.08535895 -0.0025355269 0.10688663 -0.15158057 0.24021736
0.07491715 -0.13528746 -0.07768373 -0.04746855 0.0048915967 0.20830901 -0.18280895 0.11488563
-0.12650894 -0.12725401 0.13296804 -0.036990568 0.1212266 -0.18276313 -0.13805073 0.11994826
0.101607345 -0.012613289 -0.16372657 -0.14059012 0.014325147 0.13483307 -0.00039715492 -0.13950942
-0.041621428 0.004660512 -0.17731605 0.05011862 0.042733453 -0.14567992 -0.06331408 0.15724109
0.1278947 0.18562816 0.07967267 -0.041358035 -0.01674687 0.19159964 -0.124849975 0.11919852
0.039834395 -0.054749455 -0.07298789 0.07317091 0.10782137 -0.1866414 0.071212225 0.070748724
0.12131077 0.120566696 -0.14397986 -0.100818746 0.2718232 0.09510154 0.23861843 -0.14267957
-0.09404861 0.023256307 0.11232995 0.1305863 0.16755287 -0.02292663 -0.19769008 -0.15034345
-0.086839 0.085856736 -0.090452604 -0.015139158 0.11306534 -0.12502888 0.1301303 0.016598938
0.13199733 -0.08400911 -0.18252645 -0.13745642 0.13979259 0.18716381 0.15048075 0.058649063
-0.026442053 -0.07429157 -0.056507308 -0.19587573 0.10983553 -0.03955836 0.030246291 -0.100685924
-0.17821479 -0.120616205 0.12785904 0.14689106 0.23083447 -0.14962147 0.18598866 -0.1307938
0.15697333 -0.039094813 0.0015559639 0.17642331 -0.14001216 0.0709883 0.13717705 0.15123628
0.060735747 -0.039106622 0.15013143 -0.04201414 0.22120059 -0.17994481 -0.033231903 -0.120969154
0.09653606 0.14530863 -0.024381327 -0.23067103 -0.16915736 -0.19795397 0.09129144 -0.09190325
-0.04254825 -0.08662529 0.20950778 0.05301808 -0.27658316 0.14629366 0.18983959 -0.25331655

classifier.4.bias f4 [5]
00000000: b047 94bc fdae 14bd 87c6 e63b b4b8 6d3d
00000010: 4bb6 50bd
-0.01810059 -0.036299694 0.0070427093 0.058037475 -0.050955098
